…
2021-01-28 11:06:21,603 [INFO]: logger:
2021-01-28 11:06:21,603 [INFO]:   log_freq: 100
2021-01-28 11:06:21,603 [INFO]:   decay: 0.99
2021-01-28 11:06:21,603 [INFO]:   ckpt_freq: 20000
2021-01-28 11:06:21,603 [INFO]: exp_dir: ./experiments_BD/TecoGAN/001
2021-01-28 11:06:21,603 [INFO]: device: cuda
2021-01-28 11:06:21,603 [INFO]: is_train: True
2021-01-28 11:06:23,831 [INFO]: ==================== Model Info ====================
2021-01-28 11:06:23,831 [INFO]: Model: TecoGAN
2021-01-28 11:06:23,861 [INFO]: Generator: FRNet
FRNet(
  (upsample_func): BicubicUpsample()
  (fnet): FNet(
    (encoder1): Sequential(
      (0): Conv2d(6, 32, kernel_size=(3, 3), stride=(1, 1), padding=(1, 1))
      (1): LeakyReLU(negative_slope=0.2, inplace=True)
      (2): Conv2d(32, 32, kernel_size=(3, 3), stride=(1, 1), padding=(1, 1))
      (3): LeakyReLU(negative_slope=0.2, inplace=True)
      (4): MaxPool2d(kernel_size=2, stride=2, padding=0, dilation=1, ceil_mode=False)
    )
    (encoder2): Sequential(
      (0): Conv2d(32, 64, kernel_size=(3, 3), stride=(1, 1), padding=(1, 1))
      (1): LeakyReLU(negative_slope=0.2, inplace=True)
      (2): Conv2d(64, 64, kernel_size=(3, 3), stride=(1, 1), padding=(1, 1))
      (3): LeakyReLU(negative_slope=0.2, inplace=True)
      (4): MaxPool2d(kernel_size=2, stride=2, padding=0, dilation=1, ceil_mode=False)
    )
    (encoder3): Sequential(
      (0): Conv2d(64, 128, kernel_size=(3, 3), stride=(1, 1), padding=(1, 1))
      (1): LeakyReLU(negative_slope=0.2, inplace=True)
      (2): Conv2d(128, 128, kernel_size=(3, 3), stride=(1, 1), padding=(1, 1))
      (3): LeakyReLU(negative_slope=0.2, inplace=True)
      (4): MaxPool2d(kernel_size=2, stride=2, padding=0, dilation=1, ceil_mode=False)
    )
    (decoder1): Sequential(
      (0): Conv2d(128, 256, kernel_size=(3, 3), stride=(1, 1), padding=(1, 1))
      (1): LeakyReLU(negative_slope=0.2, inplace=True)
      (2): Conv2d(256, 256, kernel_size=(3, 3), stride=(1, 1), padding=(1, 1))
      (3): LeakyReLU(negative_slope=0.2, inplace=True)
    )
    (decoder2): Sequential(
      (0): Conv2d(256, 128, kernel_size=(3, 3), stride=(1, 1), padding=(1, 1))
      (1): LeakyReLU(negative_slope=0.2, inplace=True)
      (2): Conv2d(128, 128, kernel_size=(3, 3), stride=(1, 1), padding=(1, 1))
      (3): LeakyReLU(negative_slope=0.2, inplace=True)
    )
    (decoder3): Sequential(
      (0): Conv2d(128, 64, kernel_size=(3, 3), stride=(1, 1), padding=(1, 1))
      (1): LeakyReLU(negative_slope=0.2, inplace=True)
      (2): Conv2d(64, 64, kernel_size=(3, 3), stride=(1, 1), padding=(1, 1))
      (3): LeakyReLU(negative_slope=0.2, inplace=True)
    )
    (flow): Sequential(
      (0): Conv2d(64, 32, kernel_size=(3, 3), stride=(1, 1), padding=(1, 1))
      (1): LeakyReLU(negative_slope=0.2, inplace=True)
      (2): Conv2d(32, 2, kernel_size=(3, 3), stride=(1, 1), padding=(1, 1))
    )
  )
  (srnet): SRNet(
    (conv_in): Sequential(
      (0): Conv2d(51, 64, kernel_size=(3, 3), stride=(1, 1), padding=(1, 1))
      (1): ReLU(inplace=True)
    )
    (resblocks): Sequential(
      (0): ResidualBlock(
        (conv): Sequential(
          (0): Conv2d(64, 64, kernel_size=(3, 3), stride=(1, 1), padding=(1, 1))
          (1): ReLU(inplace=True)
          (2): Conv2d(64, 64, kernel_size=(3, 3), stride=(1, 1), padding=(1, 1))
        )
      )
      (1): ResidualBlock(
        (conv): Sequential(
          (0): Conv2d(64, 64, kernel_size=(3, 3), stride=(1, 1), padding=(1, 1))
          (1): ReLU(inplace=True)
          (2): Conv2d(64, 64, kernel_size=(3, 3), stride=(1, 1), padding=(1, 1))
        )
      )
      (2): ResidualBlock(
        (conv): Sequential(
          (0): Conv2d(64, 64, kernel_size=(3, 3), stride=(1, 1), padding=(1, 1))
          (1): ReLU(inplace=True)
          (2): Conv2d(64, 64, kernel_size=(3, 3), stride=(1, 1), padding=(1, 1))
        )
      )
      (3): ResidualBlock(
        (conv): Sequential(
          (0): Conv2d(64, 64, kernel_size=(3, 3), stride=(1, 1), padding=(1, 1))
          (1): ReLU(inplace=True)
          (2): Conv2d(64, 64, kernel_size=(3, 3), stride=(1, 1), padding=(1, 1))
        )
      )
      (4): ResidualBlock(
        (conv): Sequential(
          (0): Conv2d(64, 64, kernel_size=(3, 3), stride=(1, 1), padding=(1, 1))
          (1): ReLU(inplace=True)
          (2): Conv2d(64, 64, kernel_size=(3, 3), stride=(1, 1), padding=(1, 1))
        )
      )
      (5): ResidualBlock(
        (conv): Sequential(
          (0): Conv2d(64, 64, kernel_size=(3, 3), stride=(1, 1), padding=(1, 1))
          (1): ReLU(inplace=True)
          (2): Conv2d(64, 64, kernel_size=(3, 3), stride=(1, 1), padding=(1, 1))
        )
      )
      (6): ResidualBlock(
        (conv): Sequential(
          (0): Conv2d(64, 64, kernel_size=(3, 3), stride=(1, 1), padding=(1, 1))
          (1): ReLU(inplace=True)
          (2): Conv2d(64, 64, kernel_size=(3, 3), stride=(1, 1), padding=(1, 1))
        )
      )
      (7): ResidualBlock(
        (conv): Sequential(
          (0): Conv2d(64, 64, kernel_size=(3, 3), stride=(1, 1), padding=(1, 1))
          (1): ReLU(inplace=True)
          (2): Conv2d(64, 64, kernel_size=(3, 3), stride=(1, 1), padding=(1, 1))
        )
      )
      (8): ResidualBlock(
        (conv): Sequential(
          (0): Conv2d(64, 64, kernel_size=(3, 3), stride=(1, 1), padding=(1, 1))
          (1): ReLU(inplace=True)
          (2): Conv2d(64, 64, kernel_size=(3, 3), stride=(1, 1), padding=(1, 1))
        )
      )
      (9): ResidualBlock(
        (conv): Sequential(
          (0): Conv2d(64, 64, kernel_size=(3, 3), stride=(1, 1), padding=(1, 1))
          (1): ReLU(inplace=True)
          (2): Conv2d(64, 64, kernel_size=(3, 3), stride=(1, 1), padding=(1, 1))
        )
      )
    )
    (conv_up): Sequential(
      (0): ConvTranspose2d(64, 64, kernel_size=(3, 3), stride=(2, 2), padding=(1, 1), output_padding=(1, 1))
      (1): ReLU(inplace=True)
      (2): ConvTranspose2d(64, 64, kernel_size=(3, 3), stride=(2, 2), padding=(1, 1), output_padding=(1, 1))
      (3): ReLU(inplace=True)
    )
    (conv_up_cheap): Sequential(
      (0): PixelShuffle(upscale_factor=4)
      (1): ReLU(inplace=True)
    )
    (conv_out): Conv2d(4, 3, kernel_size=(3, 3), stride=(1, 1), padding=(1, 1))
    (upsample_func): BicubicUpsample()
  )
)
2021-01-28 11:06:23,881 [INFO]: Loaded generator from: pretrained_models/G_iter400000.pth
2021-01-28 11:06:23,889 [INFO]: Discriminator: STNet
SpatioTemporalDiscriminator(
  (conv_in): Sequential(
    (0): Conv2d(27, 64, kernel_size=(3, 3), stride=(1, 1), padding=(1, 1))
    (1): LeakyReLU(negative_slope=0.2, inplace=True)
  )
  (discriminator_block): DiscriminatorBlocks(
    (block1): Sequential(
      (0): Conv2d(64, 64, kernel_size=(4, 4), stride=(2, 2), padding=(1, 1), bias=False)
      (1): BatchNorm2d(64, eps=1e-05, momentum=0.1, affine=True, track_running_stats=True)
      (2): LeakyReLU(negative_slope=0.2, inplace=True)
    )
    (block2): Sequential(
      (0): Conv2d(64, 64, kernel_size=(4, 4), stride=(2, 2), padding=(1, 1), bias=False)
      (1): BatchNorm2d(64, eps=1e-05, momentum=0.1, affine=True, track_running_stats=True)
      (2): LeakyReLU(negative_slope=0.2, inplace=True)
    )
    (block3): Sequential(
      (0): Conv2d(64, 128, kernel_size=(4, 4), stride=(2, 2), padding=(1, 1), bias=False)
      (1): BatchNorm2d(128, eps=1e-05, momentum=0.1, affine=True, track_running_stats=True)
      (2): LeakyReLU(negative_slope=0.2, inplace=True)
    )
    (block4): Sequential(
      (0): Conv2d(128, 256, kernel_size=(4, 4), stride=(2, 2), padding=(1, 1), bias=False)
      (1): BatchNorm2d(256, eps=1e-05, momentum=0.1, affine=True, track_running_stats=True)
      (2): LeakyReLU(negative_slope=0.2, inplace=True)
    )
  )
  (dense): Linear(in_features=16384, out_features=1, bias=True)
)
2021-01-28 11:06:25,336 [INFO]: Number of training samples: 23000
2021-01-28 11:06:25,336 [INFO]: Total epochs needed: 174 for 500000 iterations
./experiments_BD/TecoGAN/001
2021-01-28 11:08:25,245 [INFO]: [epoch: 0 | iter: 100 | lr_G: 5.00e-05 | lr_D: 5.00e-05] l_gan_D: 1.430e+00, p_real_D: -7.345e-02, p_fake_D: -1.328e-01, distance: 2.947e-02, n_upd_D: 3.760e+01, l_pix_G: 2.035e-02, l_warp_G: 1.953e-02, l_feat_G: 1.987e-01, l_pp_G: 5.396e-03, l_gan_G: 6.677e-03, p_fake_G: 8.428e-02
…
